models/gesture_classifier.tflite (tflite, 24992 bytes, 8 tensors)

arith.constant f4 [128]
000000 66 e7 3d be 5b 2a e3 bd 20 d6 58 be d7 c6 86 bd
       -0.18545303 -0.11092063 -0.21175432 -0.065808944
000010 7e 93 51 be 52 4d 91 be 3e 08 82 bd f8 e9 a6 bd
       -0.2046642 -0.28379303 -0.06349228 -0.08150095
000020 74 c8 25 be ba 75 7e bd 4a 95 bb bc f0 5b 2c be
       -0.16189748 -0.06212399 -0.022898335 -0.16831946
000030 b1 af b9 be 7e 05 cf bd 68 ff ac be 04 f4 6a 3c
       -0.36266854 -0.101084694 -0.3378861 0.014340404
000040 9d 27 6b bd 54 a4 89 be f1 81 db be 87 f9 3e bd
       -0.057410825 -0.26883185 -0.42872575 -0.046624687
000050 e2 41 22 be 1b a2 13 bd 25 ec d3 bd d4 be 15 3d
       -0.15845445 -0.036043268 -0.10347775 0.03655894
000060 30 de b4 bc c4 73 59 bd f7 32 bc be 07 ae 3c be
       -0.022078604 -0.05308892 -0.36757633 -0.18425761
000070 09 a8 26 be 73 a8 ac be 67 65 ed bd 63 31 57 be
       -0.16275038 -0.33722267 -0.115916066 -0.21014933
000080 b1 9a 0f be 80 11 18 be 0e 59 4b be f0 9f 05 be
       -0.14023854 -0.14850426 -0.1985819 -0.13049293
000090 f5 a0 63 be a0 56 06 be 8e b6 45 bd fd d5 57 bd
       -0.22229369 -0.13118982 -0.0482698 -0.05269431
0000a0 8b f0 7e bb 0d 6f 8e bc e2 36 b4 bd 2d 32 09 be
       -0.00389007 -0.017386938 -0.087995306 -0.13398047
0000b0 ce 27 92 be d3 ad c8 bd af 90 8b be cf 5f 04 be
       -0.28545994 -0.09798779 -0.27258822 -0.12927173
0000c0 59 76 03 be 36 c5 4d be db 27 91 be b3 cf d7 be
       -0.12838115 -0.20094761 -0.2835072 -0.4215065
0000d0 e0 3a 19 be 06 b5 99 be 59 25 ce bd 1b ea 6b bd
       -0.14963865 -0.30020922 -0.10065717 -0.057596307
0000e0 ab 00 e9 bd fb eb d0 bd 64 a1 b9 be 29 2d 5d be
       -0.113770805 -0.1020126 -0.36255944 -0.21599258
0000f0 9b c4 cd be 92 e2 a1 3d e1 95 95 be 9d 27 71 be
       -0.4018906 0.07904543 -0.2921591 -0.23550268
000100 89 ea 1b be e5 3c 9a be 8f fc 1a be fd 1f 08 be
       -0.15226187 -0.30124584 -0.15135406 -0.13293453
000110 88 ec ac bd e1 13 3a be 73 bc 80 bc 4b 68 89 3c
       -0.08443552 -0.18171646 -0.01571486 0.016773364
000120 7a b7 20 bd bd bc c3 be a9 64 24 be 8e fd ef bd
       -0.039237477 -0.38229933 -0.16054024 -0.117182836
000130 8a fc 17 be 1b f8 67 be c6 51 26 be 17 ba 9e be
       -0.1484243 -0.22653238 -0.16242132 -0.3100135
000140 75 93 85 be 41 dc 3d be e9 73 38 3d 32 b3 a8 bd
       -0.26089063 -0.18541051 0.045032416 -0.08237304
000150 4e 2f 3a be 7f d4 9e be 45 66 03 be 75 bc 21 be
       -0.18182108 -0.31021497 -0.12831981 -0.15794547
000160 6d 40 0d bf 74 76 15 bf 1e 99 07 be b3 1f 78 be
       -0.5517643 -0.5838387 -0.13242003 -0.24230842
000170 5b a4 ac bd ae 85 49 be 9f d6 6e bd 25 97 c7 bd
       -0.08429786 -0.19679901 -0.058310147 -0.097456254
000180 b4 69 6a bd 53 d0 6e be 6e ae c6 bd 5a c2 d6 be
       -0.057229713 -0.23321657 -0.097012386 -0.41945153
000190 a8 ba 0a be 8d 9e 3a be 20 fd fd bd d6 92 99 3c
       -0.13547766 -0.18224545 -0.124017954 0.018746775
0001a0 3e 2b 38 be cd c7 d4 be 69 1c f2 bd 01 ca 02 be
       -0.17985246 -0.41558686 -0.11821825 -0.12772371
0001b0 b9 8f 7b be 95 d0 00 bc 41 97 aa bd e4 ea f6 bd
       -0.24566545 -0.00786223 -0.08329631 -0.120565206
0001c0 c9 3d d3 be 52 92 08 be 01 0e 1a be 1a 48 cd bd
       -0.41258076 -0.13337067 -0.15044405 -0.10023518
0001d0 22 0c 12 be 34 fb 24 be 21 c2 44 bd 7d cd 21 be
       -0.14262441 -0.16111451 -0.0480367 -0.15801044
0001e0 e5 4a 0e bd 82 b9 97 bc ef cf a2 be c8 32 bd bd
       -0.034739394 -0.018521074 -0.31799266 -0.092382014
0001f0 5a 33 27 be 10 91 08 bd 89 bd 7a be 64 53 40 be
       -0.16328183 -0.033341467 -0.24486364 -0.18781811

arith.constant1 f4 [23, 32]
000000 9f 7d 18 bf 8c ff f8 be 21 29 33 bf b2 96 23 3e
       -0.5956668 -0.48632467 -0.6998463 0.15975454
000010 cf 04 dc 3e c9 2a 12 bf 3d 37 9e bf e9 dd e0 bd
       0.4297242 -0.57096535 -1.2360607 -0.10979826
000020 6d 8e 2e 3e d5 1a c9 be 30 90 a6 bd e1 5f 91 be
       0.17046519 -0.39278284 -0.0813297 -0.28393462
000030 46 0f fd be e1 89 da 3e d5 39 ae be 5e bb f3 be
       -0.49425715 0.42683318 -0.34028497 -0.47603887
000040 6d 4a c8 3e 13 ba bd be bf c2 15 3e c4 8e 9d be
       0.39119282 -0.37056026 0.14625071 -0.30772984
000050 3e 84 b2 be 99 cf 77 bf 76 7e ab bf 30 14 e3 be
       -0.34866518 -0.96801144 -1.3397968 -0.4435134
000060 c1 f2 01 be 63 b4 86 be d2 df 6c bf 55 ca eb 3e
       -0.1269026 -0.263095 -0.9252902 0.46052805
000070 b8 15 ad bd b6 2d 8a 3e b6 19 28 3e f3 0c c9 3e
       -0.08451408 0.26988 0.16416058 0.39267692
000080 89 1f 1a bf f6 8e 00 3f 05 3e ec be 28 da a1 be
       -0.6020437 0.5021814 -0.46141067 -0.31611753
000090 a4 5b ab 3e 5f 5f 8e bf ec 64 99 be 8a ac ec 3e
       0.33468354 -1.1122855 -0.2995981 0.46225387
0000a0 a2 6e 80 bd d6 66 e4 be 72 4f f9 3e 5a bd b8 be
       -0.062711015 -0.44609708 0.48693424 -0.36081964
0000b0 fa 81 da bd 82 a8 45 bf d9 58 bb bd 80 8c 92 bf
       -0.10669322 -0.7721025 -0.09147806 -1.1449127
0000c0 ee ad 8a be fd 90 30 be a7 98 a1 3e b1 9b db be
       -0.27085823 -0.17242809 0.31561777 -0.4289222
0000d0 9a 4b 0f 3f 31 c7 76 bf c9 f2 66 bf ac 82 0d 3f
       0.55974734 -0.9639769 -0.9021421 0.55277514
0000e0 36 cd fc 3d 60 b3 0b bf 36 10 4c bf 7c fa 78 3d
       0.123438284 -0.5457058 -0.79712236 0.060785756
0000f0 30 ce 87 be 88 a0 9b be 9b 6a f2 be 93 b4 22 bf
       -0.26524496 -0.30395913 -0.4734696 -0.63556784
000100 4c 62 9f 3e 08 08 5f be 68 5e 7e 3e c6 25 b0 be
       0.31129682 -0.21780407 0.248407 -0.3440382
000110 5e 3d 0b bf e3 78 62 bf 7b aa 5c be e3 0c 1a bf
       -0.54390514 -0.8846571 -0.21549408 -0.60175914
000120 bc 88 8b 3e 60 94 6c be d6 96 46 be c3 8a ed be
       0.27252758 -0.23103476 -0.19393477 -0.4639493
000130 d7 ac 80 3e dc 00 3c bf ac c9 95 3e 25 98 84 3e
       0.25131866 -0.7343881 0.29255426 0.25897327
000140 bf 59 76 3e 8e 13 01 bf b2 49 58 3e c6 d9 22 bf
       0.24057673 -0.50420463 0.21121863 -0.63613546
000150 2e c0 b4 3e 65 c3 a2 be 62 2b c5 bf 24 ac 9b be
       0.3530287 -0.317897 -1.5403864 -0.3040477
000160 05 bc 92 be a0 69 10 bf a2 2a 28 bf 54 1e 1c bf
       -0.28659073 -0.5641117 -0.6569005 -0.6098378
000170 29 5a b2 3e f1 a2 0a 3e 94 5e 47 bf 42 5c a4 bd
       0.34834412 0.1353872 -0.7787869 -0.08025409
000180 c7 6e b6 bd 17 8e 99 be 95 49 12 bf ad c9 23 bf
       -0.08907848 -0.29991218 -0.5714353 -0.6397961
000190 39 b6 b1 3e f8 f0 32 3e f1 39 55 3e 34 b3 84 3e
       0.34709337 0.17474735 0.20822884 0.2591797
0001a0 2e a1 39 bf f8 73 8f 3e 56 8e 85 be fc 08 02 bf
       -0.72511566 0.28018165 -0.26085156 -0.5079496
0001b0 06 3f 92 3d 1f 35 43 3e 69 ba d0 be b2 db 15 3e
       0.07140927 0.19063233 -0.4076722 0.14634588
0001c0 fd 0a 1a bf 16 a0 97 be bf 5c 07 bf 44 a5 92 3e
       -0.60173017 -0.29614323 -0.52875894 0.28641713
0001d0 31 e7 8d be 41 d0 29 bf 32 f6 0e 3e e7 47 91 3e
       -0.27715448 -0.66333395 0.13961104 0.2837517
0001e0 0d d1 69 3e 0a d2 12 bf 16 18 8a be c5 03 a6 3e
       0.22833653 -0.57351744 -0.269715 0.3242475
0001f0 ba 1e 62 3e 3a 29 2c bf c2 27 de be 73 62 c7 bd
       0.22082034 -0.67250407 -0.43389708 -0.097355746
000200 bf bf 69 be 02 67 8b 3e 21 86 d2 be bc 8a d3 be
       -0.22827052 0.27227026 -0.41117957 -0.41316783
000210 c7 91 23 be 49 39 3d bf 9f fd 1c 3e d7 2f 23 3d
       -0.15973578 -0.73915535 0.15331124 0.039840546
000220 41 dd 78 be 3a fd 2a be ed 7d 8d be 2c 4d f3 3d
       -0.24303152 -0.16698161 -0.27635136 0.11879954
000230 33 69 9f 3d 73 37 d9 be 8f d8 5d 3e 38 03 e4 bd
       0.07783737 -0.42425117 0.21664642 -0.111334264
000240 e3 74 ae be 87 13 96 3e 56 93 d6 be 5f 35 b8 3e
       -0.34073552 0.29311773 -0.41909283 0.3597822
000250 73 0a 62 be 47 bf 86 bf 0d 06 bb be 72 6d da be
       -0.22074299 -1.0527123 -0.36528054 -0.42661625
000260 ea 03 4d 3e 5a c2 0c bf 38 18 3b 3e 10 82 b4 3e
       0.20021024 -0.54984057 0.18270957 0.3525548
000270 6f ad b6 3e 74 17 df be e2 eb ae bd 07 8f 1c bf
       0.35679194 -0.4357258 -0.08541085 -0.6115574
000280 10 e1 cc bd f9 de 9f 3e 6b b1 b8 3e bd 73 3c 3e
       -0.10003865 0.31224802 0.3607286 0.18403526
000290 e5 60 bf be 75 f9 c8 be 83 ba 05 bf d9 6b f5 be
       -0.37378612 -0.3925282 -0.5223772 -0.47933844
0002a0 5b 92 61 3e 8f 9d d6 3e 9d 62 ae be ae 78 10 3e
       0.22028486 0.41917083 -0.3405961 0.14108536
0002b0 8d d9 ba 3e 1c f2 b0 be ed d9 84 be ef 06 52 bf
       0.36494103 -0.34559715 -0.25947514 -0.8204183
0002c0 f0 09 d7 be 3c f7 c1 3e 1b 46 98 be a4 01 f7 be
       -0.4199977 0.37883937 -0.29740986 -0.4824344
0002d0 2d 89 22 bf db 0d 2d bf 42 42 a1 bf d8 ac af bc
       -0.63490564 -0.67599267 -1.2598345 -0.021444723
0002e0 6c 95 67 be b7 f5 27 bf d6 cf 8b bf 6b 8e 3e bf
       -0.22615594 -0.65609306 -1.0922801 -0.7443606
0002f0 c3 3d c2 be f0 98 72 3e c6 19 06 bf 2c 96 2e bf
       -0.37937745 0.23691154 -0.5238308 -0.68197894
000300 35 0d fc be cf 2b 19 bf 1f 31 75 bf 9c ac 60 3e
       -0.49228826 -0.5983247 -0.9577808 0.21940845
000310 d7 83 f7 be fb 97 2d bf c2 22 ae bf b0 f3 f2 be
       -0.48342773 -0.6781003 -1.3604357 -0.47451544
000320 29 22 b1 be 53 43 9b be 2f 54 d6 3e 7b 0d 0b bf
       -0.34596375 -0.30324802 0.41861102 -0.54317445
000330 94 d3 0a bf 2c 0c 8f be 97 fd 32 be e5 2d 1a bf
       -0.5422909 -0.27938974 -0.1747955 -0.6022628
000340 ae 7c cc 3e ea 8f 0d bf 6b 14 92 3e 9c ec 86 bf
       0.39938873 -0.5529772 0.28531203 -1.0540957
000350 74 37 6b bb c1 bf d2 be 8f ef 8a bf e3 17 bf bd
       -0.0035891207 -0.41161922 -1.0854357 -0.09330728
000360 f1 bb 85 3e 81 bb 95 3e 54 94 1a bf 34 cb f5 3e
       0.2611995 0.29244617 -0.6038258 0.48006594
000370 ff 02 b4 3e 80 6e 4d be 50 9d 1a bf 7b ba d7 3e
       0.35158536 -0.20061684 -0.6039629 0.4213446
000380 b1 2c a2 3d db 8f 84 3e c2 8c 28 be 1a aa 15 3d
       0.079186805 0.25891003 -0.16459945 0.036539175
000390 80 7b a4 be 3b a6 bf be 0b ff 7f be ef fe 0e bf
       -0.32125473 -0.3743151 -0.24999635 -0.5585775
0003a0 44 c2 94 3e 39 5c 38 bf db 7e b2 bd 6a d9 10 3e
       0.29054463 -0.7201572 -0.08715602 0.14145437
0003b0 eb d6 a7 be 84 90 65 be 03 92 0f be ce b2 8e 3e
       -0.32781157 -0.2241841 -0.14020543 0.27870792
0003c0 67 58 ca be a1 80 dd be 96 66 2f be ee d8 e7 be
       -0.3952057 -0.432622 -0.17128977 -0.45282692
0003d0 cb 5a 95 3e e8 06 bd bd 55 3d 6a 3e bf 47 8b be
       0.29170832 -0.09229833 0.22874959 -0.27203175
0003e0 54 87 97 be 64 ac 8a 3e f1 ea 44 bf 83 9c 04 bf
       -0.29595435 0.2708465 -0.7692099 -0.5180132
0003f0 af a5 2d 3e 2d e0 e0 be fd 09 5d be e8 99 a0 3e
       0.16957735 -0.43921033 -0.21585841 0.3136742

arith.constant2 f4 [23]
000000 8f 25 d6 3c a6 29 c0 3e 9a 2b 60 bd 27 d9 02 be
       0.026140956 0.37531775 -0.05472908 -0.1277815
000010 24 73 fe 3e 7f 62 94 3e 82 5a ab 3d cf 7d 35 3f
       0.4969722 0.28981397 0.08366872 0.70895094
000020 20 f5 1e 3e a4 eb 66 be dc 94 eb bc e0 94 c2 3d
       0.15523195 -0.22550827 -0.028757505 0.09501052
000030 24 d9 2a bf ee 90 aa 3d 9f 2d 8a bd d0 e0 0e 3e
       -0.6673758 0.083284244 -0.06746983 0.13952947
000040 54 b4 da be f8 ff 84 be 73 5e 14 3e b3 62 e5 be
       -0.42715704 -0.2597654 0.14489155 -0.44801864
000050 2a 99 ff bd 17 29 a9 be f0 f1 ed 3b
       -0.124803856 -0.33039162 0.007261507

arith.constant3 f4 [64]
000000 64 3d 1b bd d1 44 97 3c 31 be 6e 3e ed ea e3 3d
       -0.037900344 0.018465431 0.2331474 0.11128793
000010 14 db f3 3d 7f 20 14 3e da 72 65 3e 9b 2d b9 3d
       0.1190702 0.14465521 0.22407094 0.09041902
000020 13 7b 35 3e 0c 3d 17 3d bb cb a2 be 8b c9 2d bc
       0.1772273 0.036923453 -0.3179606 -0.010607134
000030 88 b1 8a 3e db 76 3c 3e 85 a9 15 3e fb 0d 59 3d
       0.2708857 0.18404715 0.14615448 0.05299185
000040 bf e0 58 bd 9d a3 0c 3e dd 67 8d be 6b 88 f0 3d
       -0.05294871 0.13734289 -0.27618304 0.1174477
000050 39 07 a9 3e 9a c4 a0 3e a6 94 8e 3e 8e df ea 3d
       0.33013323 0.31399995 0.27847785 0.11468421
000060 d2 9f 1c 3d 07 d5 9f be 67 ee 8f 3e 29 17 27 3e
       0.038238354 -0.31217214 0.28111574 0.16317429
000070 1b 53 a2 3e 4a fa 5e 3d 03 e7 4b be 05 c0 90 bd
       0.3170403 0.054437913 -0.19912343 -0.07067875
000080 75 68 32 3e 03 81 4a 3e 45 1b 46 3e 1f 35 33 bd
       0.1742266 0.19775777 0.1934634 -0.043751832
000090 c9 1e 96 3d 2f 2b 06 3e c7 8a 77 3e 59 55 96 3e
       0.073300906 0.1310241 0.24174033 0.2936199
0000a0 b0 ad e2 bd 7c 6c 44 3e 52 fb 82 3e be e6 ab bb
       -0.110682845 0.19182009 0.25582367 -0.0052460125
0000b0 12 c0 11 3e 45 b2 2d 3e 87 3c 73 3d 76 6e 92 3e
       0.14233425 0.16962536 0.059383895 0.285999
0000c0 c1 3b 5a 3e ac a4 97 3e f7 28 9b 3d b9 14 6c 3e
       0.21311857 0.29617822 0.07576173 0.2305478
0000d0 1f 2c 43 3e ef 77 59 be 82 14 26 be d8 9b a3 3c
       0.190598 -0.21237157 -0.1621876 0.019971773
0000e0 29 cf 8f 3e 31 3f 4d 3e 3d 91 3f 3e a3 e7 8b 3d
       0.28087738 0.20043637 0.18707748 0.068312906
0000f0 43 2f 0e 3e 2c 56 b4 3d f9 8b 41 3d 90 a9 8a bd
       0.13885216 0.088054985 0.04725263 -0.06770623

arith.constant4 f4 [32]
000000 5b 65 6a 3f 77 59 f5 3e fd 5a 53 3f e6 5f a7 3f
       0.91560906 0.4791982 0.8256071 1.3076141
000010 01 7d d7 3d 61 b4 49 be 56 c8 4e 3d 73 75 05 3f
       0.105218895 -0.19697715 0.050484024 0.5213234
000020 69 8a 51 bf 6f 89 8c 3f 33 09 02 3f 31 64 09 3f
       -0.8185182 1.0979441 0.50795287 0.53668505
000030 60 5f 3f 3f 65 5b 18 3f 6b c6 37 3f 64 96 44 3e
       0.74754906 0.59514457 0.71787137 0.19197994
000040 80 d1 b3 3f 69 cb ab 3f 50 70 00 3f 3f 3d 28 3f
       1.4048309 1.3421451 0.50171375 0.65718454
000050 82 87 f3 3e 75 46 2b bf 0a 9c a0 3f 1b 17 ef 3e
       0.47564322 -0.66904384 1.2547619 0.46697316
000060 65 85 95 3f 4a 91 3a 3f d0 0c 82 3f d8 37 d4 3f
       1.1681334 0.72877944 1.016016 1.6579542
000070 be fe 9f 3f 37 e8 5d 3f 13 f4 90 3f 57 f4 b1 3c
       1.2499616 0.86682457 1.1324486 0.021722956

tfl.pseudo_qconst i1 [32, 64]
000000 ec df 81 35 16 1a 09 01 f0 23 1e 9f a0 03 18 69
       -20 -33 -127 53 22 26 9 1 -16 35 30 -97 -96 3 24 105
000010 c2 2f fe f3 15 26 ad 34 ff f6 f7 b9 ed b4 26 e8
       -62 47 -2 -13 21 38 -83 52 -1 -10 -9 -71 -19 -76 38 -24
000020 52 27 f3 f7 66 af d4 fa 01 e8 f5 01 16 16 2e 10
       82 39 -13 -9 102 -81 -44 -6 1 -24 -11 1 22 22 46 16
000030 bf d2 07 14 04 ab d2 04 fc fb d9 33 08 0d f0 34
       -65 -46 7 20 4 -85 -46 4 -4 -5 -39 51 8 13 -16 52
000040 08 19 e5 f6 f0 24 dd 1d 81 31 09 cc f5 f2 d9 fa
       8 25 -27 -10 -16 36 -35 29 -127 49 9 -52 -11 -14 -39 -6
000050 07 d1 0d 09 13 14 16 a4 0b e8 fe dd f2 02 08 14
       7 -47 13 9 19 20 22 -92 11 -24 -2 -35 -14 2 8 20
000060 2c 01 f4 d8 19 fb 10 fe 2c f2 fb 06 e0 2e 06 f4
       44 1 -12 -40 25 -5 16 -2 44 -14 -5 6 -32 46 6 -12
000070 0d ff f1 23 0f 15 fe 18 f9 f7 cb 21 c1 12 e7 2c
       13 -1 -15 35 15 21 -2 24 -7 -9 -53 33 -63 18 -25 44
000080 e5 34 00 d8 01 03 d3 e1 55 02 10 f1 e1 ee 0d 38
       -27 52 0 -40 1 3 -45 -31 85 2 16 -15 -31 -18 13 56
000090 cb 4b fc e3 18 d0 23 7f 0c fd 0b 18 04 03 ad 13
       -53 75 -4 -29 24 -48 35 127 12 -3 11 24 4 3 -83 19
0000a0 11 07 09 0b eb d8 c3 05 18 eb 02 04 39 12 fc 16
       17 7 9 11 -21 -40 -61 5 24 -21 2 4 57 18 -4 22
0000b0 f2 13 a8 fd f0 ed c7 08 c8 13 f9 12 f3 19 dc f8
       -14 19 -88 -3 -16 -19 -57 8 -56 19 -7 18 -13 25 -36 -8
0000c0 c6 c1 57 c1 c6 32 02 03 ea 4f 04 f7 d8 1c fc 81
       -58 -63 87 -63 -58 50 2 3 -22 79 4 -9 -40 28 -4 -127
0000d0 d8 05 d6 ea 29 f8 02 2b cd 23 ea 4c fe 17 13 1b
       -40 5 -42 -22 41 -8 2 43 -51 35 -22 76 -2 23 19 27
0000e0 39 ca 32 a9 a0 13 bd c2 44 fd 86 2e ec f1 f9 c1
       57 -54 50 -87 -96 19 -67 -62 68 -3 -122 46 -20 -15 -7 -63
0000f0 06 11 bb 08 fb 4a c4 fd fd 28 15 48 db 15 fa de
       6 17 -69 8 -5 74 -60 -3 -3 40 21 72 -37 21 -6 -34

tfl.pseudo_qconst1 i1 [64, 128]
000000 0e 21 b5 d7 0c 1f bd 81 0f d1 f0 08 0a c3 8a 11
       14 33 -75 -41 12 31 -67 -127 15 -47 -16 8 10 -61 -118 17
000010 fa 1c 00 0d d5 0d 16 2e da 33 2f ef 1a 00 10 08
       -6 28 0 13 -43 13 22 46 -38 51 47 -17 26 0 16 8
000020 e7 e8 f6 24 44 0e e4 41 c0 23 12 f6 5f 18 c5 0f
       -25 -24 -10 36 68 14 -28 65 -64 35 18 -10 95 24 -59 15
000030 c9 10 4a 01 c8 fa f3 f6 08 e7 aa c9 2e 32 ef 02
       -55 16 74 1 -56 -6 -13 -10 8 -25 -86 -55 46 50 -17 2
000040 fc e4 fa 1e 1e c7 06 e9 03 05 dd fe e6 d4 22 0c
       -4 -28 -6 30 30 -57 6 -23 3 5 -35 -2 -26 -44 34 12
000050 00 45 e8 1d d6 dc 19 fd fd 00 f6 ea f2 70 dc f6
       0 69 -24 29 -42 -36 25 -3 -3 0 -10 -22 -14 112 -36 -10
000060 f9 21 e6 05 f6 f5 08 f3 dd 03 27 b8 00 0a e3 1a
       -7 33 -26 5 -10 -11 8 -13 -35 3 39 -72 0 10 -29 26
000070 f5 25 ad 19 bf f7 f1 23 66 1d fb 14 fe 0b 45 69
       -11 37 -83 25 -65 -9 -15 35 102 29 -5 20 -2 11 69 105
000080 03 26 f3 03 04 ff 10 03 cc 1c e9 cc 09 0e 1e 0c
       3 38 -13 3 4 -1 16 3 -52 28 -23 -52 9 14 30 12
000090 13 c6 00 07 f6 e0 02 19 f7 07 81 aa 00 00 03 1d
       19 -58 0 7 -10 -32 2 25 -9 7 -127 -86 0 0 3 29
0000a0 f1 0f f6 a3 03 19 00 e3 fa 1b ec 02 a6 0c 36 10
       -15 15 -10 -93 3 25 0 -29 -6 27 -20 2 -90 12 54 16
0000b0 0f d8 24 03 19 da 03 0a c9 04 db 12 11 03 ce 00
       15 -40 36 3 25 -38 3 10 -55 4 -37 18 17 3 -50 0
0000c0 df 20 1b fb 08 01 fd 02 09 03 eb 1d 0f 0c a8 fb
       -33 32 27 -5 8 1 -3 2 9 3 -21 29 15 12 -88 -5
0000d0 00 ec 09 e8 d1 b1 ff e5 00 00 18 f3 0f 1f 0b 16
       0 -20 9 -24 -47 -79 -1 -27 0 0 24 -13 15 31 11 22
0000e0 0d 07 f0 02 02 0d 04 07 d3 05 08 01 00 f7 9f fa
       13 7 -16 2 2 13 4 7 -45 5 8 1 0 -9 -97 -6
0000f0 06 ff 02 10 03 f9 fc f1 bf fd e7 f8 8c db 18 f4
       6 -1 2 16 3 -7 -4 -15 -65 -3 -25 -8 -116 -37 24 -12

sequential_1/dense_1/MatMul i1 [128, 42]
000000 00 00 0e 08 ec 12 fd 0d 79 1a 44 5f 0b 2c e6 c6
       0 0 14 8 -20 18 -3 13 121 26 68 95 11 44 -26 -58
000010 d3 81 fd 07 1f f0 d1 d0 a2 bc b9 e0 03 cb 08 1c
       -45 -127 -3 7 31 -16 -47 -48 -94 -68 -71 -32 3 -53 8 28
000020 e7 6b a0 f2 09 09 28 e3 11 a9 00 00 14 fc fd fd
       -25 107 -96 -14 9 9 40 -29 17 -87 0 0 20 -4 -3 -3
000030 ce fa 24 e3 4c d4 25 18 c9 26 8e f9 26 1c 5f 28
       -50 -6 36 -29 76 -44 37 24 -55 38 -114 -7 38 28 95 40
000040 34 f1 36 b5 d1 ff ec 12 cd 1a 9d e4 ae dd ec da
       52 -15 54 -75 -47 -1 -20 18 -51 26 -99 -28 -82 -35 -20 -38
000050 2c 20 7f f4 00 00 0a f9 00 13 f5 e8 f6 ed 17 05
       44 32 127 -12 0 0 10 -7 0 19 -11 -24 -10 -19 23 5
000060 0e f0 ee f2 e9 b3 08 e9 fe b7 f6 41 07 7f fb df
       14 -16 -18 -14 -23 -77 8 -23 -2 -73 -10 65 7 127 -5 -33
000070 fc d0 1c 3d 1a 4a 02 ff 01 dc ed ff f2 e8 00 00
       -4 -48 28 61 26 74 2 -1 1 -36 -19 -1 -14 -24 0 0
000080 f5 09 f6 ff f5 0e 04 fd 2b f8 49 f0 35 f7 35 23
       -11 9 -10 -1 -11 14 4 -3 43 -8 73 -16 53 -9 53 35
000090 14 fe db f5 b1 e4 81 f0 12 08 0b 06 e6 f3 bc 24
       20 -2 -37 -11 -79 -28 -127 -16 18 8 11 6 -26 -13 -68 36
0000a0 05 ee 2b f6 23 f7 15 16 00 00 c0 50 02 27 2f 34
       5 -18 43 -10 35 -9 21 22 0 0 -64 80 2 39 47 52
0000b0 62 7f f9 35 14 fe 1e c9 3d 9e 04 00 cd e0 c5 ee
       98 127 -7 53 20 -2 30 -55 61 -98 4 0 -51 -32 -59 -18
0000c0 fd c9 1c e6 f1 ea fc 38 4d 3d 41 c0 ee e1 b0 f8
       -3 -55 28 -26 -15 -22 -4 56 77 61 65 -64 -18 -31 -80 -8
0000d0 9e c7 00 00 db ce f1 1a f6 08 18 08 04 c4 20 16
       -98 -57 0 0 -37 -50 -15 26 -10 8 24 8 4 -60 32 22
0000e0 16 0d f0 17 ef c7 f9 f2 02 cc 05 c7 fc f2 05 ec
       22 13 -16 23 -17 -57 -7 -14 2 -52 5 -57 -4 -14 5 -20
0000f0 0a a5 e9 81 e2 3e f0 16 0a 03 0c 0d 00 00 1b 02
       10 -91 -23 -127 -30 62 -16 22 10 3 12 13 0 0 27 2
